…
I0626 14:52:58.958318  4046 net.cpp:58] Initializing net from parameters: 
name: "CaffeNetCook"
state {
  phase: TRAIN
  level: 0
  stage: ""
}
layer {
  name: "data"
  type: "ImageData"
  top: "data"
  top: "label"
  include {
    phase: TRAIN
  }
  transform_param {
    mirror: true
    crop_size: 227
    mean_file: "/media/deepthought/DATA/Hongping/Codes/cook/model/imagenet_mean.binaryproto"
  }
  image_data_param {
    source: "/media/deepthought/DATA/Hongping/Codes/cook/img/all.txt"
    batch_size: 64
    shuffle: true
    new_height: 256
    new_width: 256
  }
}
layer {
  name: "conv1"
  type: "Convolution"
  bottom: "data"
  top: "conv1"
  param {
    lr_mult: 0
    decay_mult: 0
  }
  param {
    lr_mult: 0
    decay_mult: 0
  }
  convolution_param {
    num_output: 96
    kernel_size: 11
    stride: 4
    weight_filler {
      type: "gaussian"
      std: 0.01
    }
    bias_filler {
      type: "constant"
      value: 0
    }
  }
}
layer {
  name: "relu1"
  type: "ReLU"
  bottom: "conv1"
  top: "conv1"
}
layer {
  name: "pool1"
  type: "Pooling"
  bottom: "conv1"
  top: "pool1"
  pooling_param {
    pool: MAX
    kernel_size: 3
    stride: 2
  }
}
layer {
  name: "norm1"
  type: "LRN"
  bottom: "pool1"
  top: "norm1"
  lrn_param {
    local_size: 5
    alpha: 0.0001
    beta: 0.75
  }
}
layer {
  name: "conv2"
  type: "Convolution"
  bottom: "norm1"
  top: "conv2"
  param {
    lr_mult: 0
    decay_mult: 0
  }
  param {
    lr_mult: 0
    decay_mult: 0
  }
  convolution_param {
    num_output: 256
    pad: 2
    kernel_size: 5
    group: 2
    weight_filler {
      type: "gaussian"
      std: 0.01
    }
    bias_filler {
      type: "constant"
      value: 1
    }
  }
}
layer {
  name: "relu2"
  type: "ReLU"
  bottom: "conv2"
  top: "conv2"
}
layer {
  name: "pool2"
  type: "Pooling"
  bottom: "conv2"
  top: "pool2"
  pooling_param {
    pool: MAX
    kernel_size: 3
    stride: 2
  }
}
layer {
  name: "norm2"
  type: "LRN"
  bottom: "pool2"
  top: "norm2"
  lrn_param {
    local_size: 5
    alpha: 0.0001
    beta: 0.75
  }
}
layer {
  name: "conv3"
  type: "Convolution"
  bottom: "norm2"
  top: "conv3"
  param {
    lr_mult: 0
    decay_mult: 0
  }
  param {
    lr_mult: 0
    decay_mult: 0
  }
  convolution_param {
    num_output: 384
    pad: 1
    kernel_size: 3
    weight_filler {
      type: "gaussian"
      std: 0.01
    }
    bias_filler {
      type: "constant"
      value: 0
    }
  }
}
layer {
  name: "relu3"
  type: "ReLU"
  bottom: "conv3"
  top: "conv3"
}
layer {
  name: "conv4"
  type: "Convolution"
  bottom: "conv3"
  top: "conv4"
  param {
    lr_mult: 1
    decay_mult: 1
  }
  param {
    lr_mult: 2
    decay_mult: 0
  }
  convolution_param {
    num_output: 384
    pad: 1
    kernel_size: 3
    group: 2
    weight_filler {
      type: "gaussian"
      std: 0.01
    }
    bias_filler {
      type: "constant"
      value: 1
    }
  }
}
layer {
  name: "relu4"
  type: "ReLU"
  bottom: "conv4"
  top: "conv4"
}
layer {
  name: "conv5"
  type: "Convolution"
  bottom: "conv4"
  top: "conv5"
  param {
    lr_mult: 1
    decay_mult: 1
  }
  param {
    lr_mult: 2
    decay_mult: 0
  }
  convolution_param {
    num_output: 256
    pad: 1
    kernel_size: 3
    group: 2
    weight_filler {
      type: "gaussian"
      std: 0.01
    }
    bias_filler {
      type: "constant"
      value: 1
    }
  }
}
layer {
  name: "relu5"
  type: "ReLU"
  bottom: "conv5"
  top: "conv5"
}
layer {
  name: "pool5"
  type: "Pooling"
  bottom: "conv5"
  top: "pool5"
  pooling_param {
    pool: MAX
    kernel_size: 3
    stride: 2
  }
}
layer {
  name: "fc6"
  type: "InnerProduct"
  bottom: "pool5"
  top: "fc6"
  param {
    lr_mult: 1
    decay_mult: 1
  }
  param {
    lr_mult: 2
    decay_mult: 0
  }
  inner_product_param {
    num_output: 4096
    weight_filler {
      type: "gaussian"
      std: 0.005
    }
    bias_filler {
      type: "constant"
      value: 1
    }
  }
}
layer {
  name: "relu6"
  type: "ReLU"
  bottom: "fc6"
  top: "fc6"
}
layer {
  name: "drop6"
  type: "Dropout"
  bottom: "fc6"
  top: "fc6"
  dropout_param {
    dropout_ratio: 0.5
  }
}
layer {
  name: "fc7"
  type: "InnerProduct"
  bottom: "fc6"
  top: "fc7"
  param {
    lr_mult: 1
    decay_mult: 1
  }
  param {
    lr_mult: 2
    decay_mult: 0
  }
  inner_product_param {
    num_output: 4096
    weight_filler {
      type: "gaussian"
      std: 0.005
    }
    bias_filler {
      type: "constant"
      value: 1
    }
  }
}
layer {
  name: "relu7"
  type: "ReLU"
  bottom: "fc7"
  top: "fc7"
}
layer {
  name: "drop7"
  type: "Dropout"
  bottom: "fc7"
  top: "fc7"
  dropout_param {
    dropout_ratio: 0.5
  }
}
layer {
  name: "fc8_cook"
  type: "InnerProduct"
  bottom: "fc7"
  top: "fc8_cook"
  param {
    lr_mult: 10
    decay_mult: 1
  }
  param {
    lr_mult: 20
    decay_mult: 0
  }
  inner_product_param {
    num_output: 2
    weight_filler {
      type: "gaussian"
      std: 0.01
    }
    bias_filler {
      type: "constant"
      value: 0
    }
  }
}
layer {
  name: "loss"
  type: "SoftmaxWithLoss"
  bottom: "fc8_cook"
  bottom: "label"
  top: "loss"
}
I0626 14:52:58.958372  4046 layer_factory.hpp:77] Creating layer data
I0626 14:52:58.958390  4046 net.cpp:100] Creating Layer data
I0626 14:52:58.958395  4046 net.cpp:408] data -> data
I0626 14:52:58.958408  4046 net.cpp:408] data -> label
I0626 14:52:58.958416  4046 data_transformer.cpp:25] Loading mean file from: /media/deepthought/DATA/Hongping/Codes/cook/model/imagenet_mean.binaryproto
I0626 14:52:58.973304  4046 image_data_layer.cpp:38] Opening file /media/deepthought/DATA/Hongping/Codes/cook/img/all.txt
I0626 14:52:58.974226  4046 image_data_layer.cpp:53] Shuffling data
I0626 14:52:58.974294  4046 image_data_layer.cpp:58] A total of 804 images.
I0626 14:52:59.075734  4046 image_data_layer.cpp:85] output data size: 64,3,227,227
I0626 14:52:59.125625  4046 net.cpp:150] Setting up data
I0626 14:52:59.125648  4046 net.cpp:157] Top shape: 64 3 227 227 (9893568)
I0626 14:52:59.125650  4046 net.cpp:157] Top shape: 64 (64)
I0626 14:52:59.125653  4046 net.cpp:165] Memory required for data: 39574528
I0626 14:52:59.125658  4046 layer_factory.hpp:77] Creating layer conv1
I0626 14:52:59.125674  4046 net.cpp:100] Creating Layer conv1
I0626 14:52:59.125679  4046 net.cpp:434] conv1 <- data
I0626 14:52:59.125687  4046 net.cpp:408] conv1 -> conv1
I0626 14:52:59.275840  4046 net.cpp:150] Setting up conv1
I0626 14:52:59.275857  4046 net.cpp:157] Top shape: 64 96 55 55 (18585600)
I0626 14:52:59.275859  4046 net.cpp:165] Memory required for data: 113916928
I0626 14:52:59.275878  4046 layer_factory.hpp:77] Creating layer relu1
I0626 14:52:59.275887  4046 net.cpp:100] Creating Layer relu1
I0626 14:52:59.275889  4046 net.cpp:434] relu1 <- conv1
I0626 14:52:59.275894  4046 net.cpp:395] relu1 -> conv1 (in-place)
I0626 14:52:59.276005  4046 net.cpp:150] Setting up relu1
I0626 14:52:59.276010  4046 net.cpp:157] Top shape: 64 96 55 55 (18585600)
I0626 14:52:59.276010  4046 net.cpp:165] Memory required for data: 188259328
I0626 14:52:59.276012  4046 layer_factory.hpp:77] Creating layer pool1
I0626 14:52:59.276016  4046 net.cpp:100] Creating Layer pool1
I0626 14:52:59.276026  4046 net.cpp:434] pool1 <- conv1
I0626 14:52:59.276027  4046 net.cpp:408] pool1 -> pool1
I0626 14:52:59.276057  4046 net.cpp:150] Setting up pool1
I0626 14:52:59.276060  4046 net.cpp:157] Top shape: 64 96 27 27 (4478976)
I0626 14:52:59.276062  4046 net.cpp:165] Memory required for data: 206175232
I0626 14:52:59.276062  4046 layer_factory.hpp:77] Creating layer norm1
I0626 14:52:59.276069  4046 net.cpp:100] Creating Layer norm1
I0626 14:52:59.276070  4046 net.cpp:434] norm1 <- pool1
I0626 14:52:59.276073  4046 net.cpp:408] norm1 -> norm1
I0626 14:52:59.276603  4046 net.cpp:150] Setting up norm1
I0626 14:52:59.276610  4046 net.cpp:157] Top shape: 64 96 27 27 (4478976)
I0626 14:52:59.276612  4046 net.cpp:165] Memory required for data: 224091136
I0626 14:52:59.276613  4046 layer_factory.hpp:77] Creating layer conv2
I0626 14:52:59.276619  4046 net.cpp:100] Creating Layer conv2
I0626 14:52:59.276621  4046 net.cpp:434] conv2 <- norm1
I0626 14:52:59.276624  4046 net.cpp:408] conv2 -> conv2
I0626 14:52:59.280181  4046 net.cpp:150] Setting up conv2
I0626 14:52:59.280190  4046 net.cpp:157] Top shape: 64 256 27 27 (11943936)
I0626 14:52:59.280192  4046 net.cpp:165] Memory required for data: 271866880
I0626 14:52:59.280200  4046 layer_factory.hpp:77] Creating layer relu2
I0626 14:52:59.280206  4046 net.cpp:100] Creating Layer relu2
I0626 14:52:59.280208  4046 net.cpp:434] relu2 <- conv2
I0626 14:52:59.280210  4046 net.cpp:395] relu2 -> conv2 (in-place)
I0626 14:52:59.280730  4046 net.cpp:150] Setting up relu2
I0626 14:52:59.280737  4046 net.cpp:157] Top shape: 64 256 27 27 (11943936)
I0626 14:52:59.280740  4046 net.cpp:165] Memory required for data: 319642624
I0626 14:52:59.280741  4046 layer_factory.hpp:77] Creating layer pool2
I0626 14:52:59.280745  4046 net.cpp:100] Creating Layer pool2
I0626 14:52:59.280746  4046 net.cpp:434] pool2 <- conv2
I0626 14:52:59.280750  4046 net.cpp:408] pool2 -> pool2
I0626 14:52:59.280774  4046 net.cpp:150] Setting up pool2
I0626 14:52:59.280778  4046 net.cpp:157] Top shape: 64 256 13 13 (2768896)
I0626 14:52:59.280779  4046 net.cpp:165] Memory required for data: 330718208
I0626 14:52:59.280781  4046 layer_factory.hpp:77] Creating layer norm2
I0626 14:52:59.280786  4046 net.cpp:100] Creating Layer norm2
I0626 14:52:59.280787  4046 net.cpp:434] norm2 <- pool2
I0626 14:52:59.280791  4046 net.cpp:408] norm2 -> norm2
I0626 14:52:59.280895  4046 net.cpp:150] Setting up norm2
I0626 14:52:59.280900  4046 net.cpp:157] Top shape: 64 256 13 13 (2768896)
I0626 14:52:59.280900  4046 net.cpp:165] Memory required for data: 341793792
I0626 14:52:59.280902  4046 layer_factory.hpp:77] Creating layer conv3
I0626 14:52:59.280907  4046 net.cpp:100] Creating Layer conv3
I0626 14:52:59.280910  4046 net.cpp:434] conv3 <- norm2
I0626 14:52:59.280912  4046 net.cpp:408] conv3 -> conv3
I0626 14:52:59.288475  4046 net.cpp:150] Setting up conv3
I0626 14:52:59.288487  4046 net.cpp:157] Top shape: 64 384 13 13 (4153344)
I0626 14:52:59.288489  4046 net.cpp:165] Memory required for data: 358407168
I0626 14:52:59.288497  4046 layer_factory.hpp:77] Creating layer relu3
I0626 14:52:59.288502  4046 net.cpp:100] Creating Layer relu3
I0626 14:52:59.288506  4046 net.cpp:434] relu3 <- conv3
I0626 14:52:59.288508  4046 net.cpp:395] relu3 -> conv3 (in-place)
I0626 14:52:59.288615  4046 net.cpp:150] Setting up relu3
I0626 14:52:59.288619  4046 net.cpp:157] Top shape: 64 384 13 13 (4153344)
I0626 14:52:59.288621  4046 net.cpp:165] Memory required for data: 375020544
I0626 14:52:59.288622  4046 layer_factory.hpp:77] Creating layer conv4
I0626 14:52:59.288628  4046 net.cpp:100] Creating Layer conv4
I0626 14:52:59.288630  4046 net.cpp:434] conv4 <- conv3
I0626 14:52:59.288635  4046 net.cpp:408] conv4 -> conv4
I0626 14:52:59.295368  4046 net.cpp:150] Setting up conv4
I0626 14:52:59.295382  4046 net.cpp:157] Top shape: 64 384 13 13 (4153344)
I0626 14:52:59.295383  4046 net.cpp:165] Memory required for data: 391633920
I0626 14:52:59.295390  4046 layer_factory.hpp:77] Creating layer relu4
I0626 14:52:59.295395  4046 net.cpp:100] Creating Layer relu4
I0626 14:52:59.295397  4046 net.cpp:434] relu4 <- conv4
I0626 14:52:59.295399  4046 net.cpp:395] relu4 -> conv4 (in-place)
I0626 14:52:59.295518  4046 net.cpp:150] Setting up relu4
I0626 14:52:59.295524  4046 net.cpp:157] Top shape: 64 384 13 13 (4153344)
I0626 14:52:59.295526  4046 net.cpp:165] Memory required for data: 408247296
I0626 14:52:59.295527  4046 layer_factory.hpp:77] Creating layer conv5
I0626 14:52:59.295533  4046 net.cpp:100] Creating Layer conv5
I0626 14:52:59.295536  4046 net.cpp:434] conv5 <- conv4
I0626 14:52:59.295539  4046 net.cpp:408] conv5 -> conv5
I0626 14:52:59.300822  4046 net.cpp:150] Setting up conv5
I0626 14:52:59.300832  4046 net.cpp:157] Top shape: 64 256 13 13 (2768896)
I0626 14:52:59.300834  4046 net.cpp:165] Memory required for data: 419322880
I0626 14:52:59.300843  4046 layer_factory.hpp:77] Creating layer relu5
I0626 14:52:59.300849  4046 net.cpp:100] Creating Layer relu5
I0626 14:52:59.300853  4046 net.cpp:434] relu5 <- conv5
I0626 14:52:59.300855  4046 net.cpp:395] relu5 -> conv5 (in-place)
I0626 14:52:59.300962  4046 net.cpp:150] Setting up relu5
I0626 14:52:59.300967  4046 net.cpp:157] Top shape: 64 256 13 13 (2768896)
I0626 14:52:59.300968  4046 net.cpp:165] Memory required for data: 430398464
I0626 14:52:59.300969  4046 layer_factory.hpp:77] Creating layer pool5
I0626 14:52:59.300973  4046 net.cpp:100] Creating Layer pool5
I0626 14:52:59.300976  4046 net.cpp:434] pool5 <- conv5
I0626 14:52:59.300978  4046 net.cpp:408] pool5 -> pool5
I0626 14:52:59.301007  4046 net.cpp:150] Setting up pool5
I0626 14:52:59.301010  4046 net.cpp:157] Top shape: 64 256 6 6 (589824)
I0626 14:52:59.301012  4046 net.cpp:165] Memory required for data: 432757760
I0626 14:52:59.301012  4046 layer_factory.hpp:77] Creating layer fc6
I0626 14:52:59.301019  4046 net.cpp:100] Creating Layer fc6
I0626 14:52:59.301021  4046 net.cpp:434] fc6 <- pool5
I0626 14:52:59.301024  4046 net.cpp:408] fc6 -> fc6
I0626 14:52:59.564496  4046 net.cpp:150] Setting up fc6
I0626 14:52:59.564512  4046 net.cpp:157] Top shape: 64 4096 (262144)
I0626 14:52:59.564513  4046 net.cpp:165] Memory required for data: 433806336
I0626 14:52:59.564522  4046 layer_factory.hpp:77] Creating layer relu6
I0626 14:52:59.564529  4046 net.cpp:100] Creating Layer relu6
I0626 14:52:59.564532  4046 net.cpp:434] relu6 <- fc6
I0626 14:52:59.564537  4046 net.cpp:395] relu6 -> fc6 (in-place)
I0626 14:52:59.565217  4046 net.cpp:150] Setting up relu6
I0626 14:52:59.565224  4046 net.cpp:157] Top shape: 64 4096 (262144)
I0626 14:52:59.565227  4046 net.cpp:165] Memory required for data: 434854912
I0626 14:52:59.565227  4046 layer_factory.hpp:77] Creating layer drop6
I0626 14:52:59.565232  4046 net.cpp:100] Creating Layer drop6
I0626 14:52:59.565233  4046 net.cpp:434] drop6 <- fc6
I0626 14:52:59.565237  4046 net.cpp:395] drop6 -> fc6 (in-place)
I0626 14:52:59.565261  4046 net.cpp:150] Setting up drop6
I0626 14:52:59.565265  4046 net.cpp:157] Top shape: 64 4096 (262144)
I0626 14:52:59.565266  4046 net.cpp:165] Memory required for data: 435903488
I0626 14:52:59.565268  4046 layer_factory.hpp:77] Creating layer fc7
I0626 14:52:59.565273  4046 net.cpp:100] Creating Layer fc7
I0626 14:52:59.565274  4046 net.cpp:434] fc7 <- fc6
I0626 14:52:59.565279  4046 net.cpp:408] fc7 -> fc7
I0626 14:52:59.682000  4046 net.cpp:150] Setting up fc7
I0626 14:52:59.682015  4046 net.cpp:157] Top shape: 64 4096 (262144)
I0626 14:52:59.682016  4046 net.cpp:165] Memory required for data: 436952064
I0626 14:52:59.682024  4046 layer_factory.hpp:77] Creating layer relu7
I0626 14:52:59.682031  4046 net.cpp:100] Creating Layer relu7
I0626 14:52:59.682034  4046 net.cpp:434] relu7 <- fc7
I0626 14:52:59.682039  4046 net.cpp:395] relu7 -> fc7 (in-place)
I0626 14:52:59.682204  4046 net.cpp:150] Setting up relu7
I0626 14:52:59.682207  4046 net.cpp:157] Top shape: 64 4096 (262144)
I0626 14:52:59.682209  4046 net.cpp:165] Memory required for data: 438000640
I0626 14:52:59.682210  4046 layer_factory.hpp:77] Creating layer drop7
I0626 14:52:59.682216  4046 net.cpp:100] Creating Layer drop7
I0626 14:52:59.682219  4046 net.cpp:434] drop7 <- fc7
I0626 14:52:59.682220  4046 net.cpp:395] drop7 -> fc7 (in-place)
I0626 14:52:59.682236  4046 net.cpp:150] Setting up drop7
I0626 14:52:59.682240  4046 net.cpp:157] Top shape: 64 4096 (262144)
I0626 14:52:59.682240  4046 net.cpp:165] Memory required for data: 439049216
I0626 14:52:59.682242  4046 layer_factory.hpp:77] Creating layer fc8_cook
I0626 14:52:59.682246  4046 net.cpp:100] Creating Layer fc8_cook
I0626 14:52:59.682248  4046 net.cpp:434] fc8_cook <- fc7
I0626 14:52:59.682251  4046 net.cpp:408] fc8_cook -> fc8_cook
I0626 14:52:59.682987  4046 net.cpp:150] Setting up fc8_cook
I0626 14:52:59.682992  4046 net.cpp:157] Top shape: 64 2 (128)
I0626 14:52:59.682994  4046 net.cpp:165] Memory required for data: 439049728
I0626 14:52:59.682997  4046 layer_factory.hpp:77] Creating layer loss
I0626 14:52:59.683001  4046 net.cpp:100] Creating Layer loss
I0626 14:52:59.683003  4046 net.cpp:434] loss <- fc8_cook
I0626 14:52:59.683006  4046 net.cpp:434] loss <- label
I0626 14:52:59.683010  4046 net.cpp:408] loss -> loss
I0626 14:52:59.683018  4046 layer_factory.hpp:77] Creating layer loss
…
I0626 14:52:59.683724  4046 net.cpp:322] The NetState phase (1) differed from the phase (0) specified by a rule in layer data
I0626 14:52:59.683826  4046 net.cpp:58] Initializing net from parameters: 
name: "CaffeNetCook"
state {
  phase: TEST
}
layer {
  name: "data"
  type: "ImageData"
  top: "data"
  top: "label"
  include {
    phase: TEST
  }
  transform_param {
    mirror: false
    crop_size: 227
    mean_file: "/media/deepthought/DATA/Hongping/Codes/cook/model/imagenet_mean.binaryproto"
  }
  image_data_param {
    source: "/media/deepthought/DATA/Hongping/Codes/cook/img/test_shuffle.txt"
    batch_size: 50
    new_height: 256
    new_width: 256
  }
}
layer {
  name: "conv1"
  type: "Convolution"
  bottom: "data"
  top: "conv1"
  param {
    lr_mult: 0
    decay_mult: 0
  }
  param {
    lr_mult: 0
    decay_mult: 0
  }
  convolution_param {
    num_output: 96
    kernel_size: 11
    stride: 4
    weight_filler {
      type: "gaussian"
      std: 0.01
    }
    bias_filler {
      type: "constant"
      value: 0
    }
  }
}
layer {
  name: "relu1"
  type: "ReLU"
  bottom: "conv1"
  top: "conv1"
}
layer {
  name: "pool1"
  type: "Pooling"
  bottom: "conv1"
  top: "pool1"
  pooling_param {
    pool: MAX
    kernel_size: 3
    stride: 2
  }
}
layer {
  name: "norm1"
  type: "LRN"
  bottom: "pool1"
  top: "norm1"
  lrn_param {
    local_size: 5
    alpha: 0.0001
    beta: 0.75
  }
}
layer {
  name: "conv2"
  type: "Convolution"
  bottom: "norm1"
  top: "conv2"
  param {
    lr_mult: 0
    decay_mult: 0
  }
  param {
    lr_mult: 0
    decay_mult: 0
  }
  convolution_param {
    num_output: 256
    pad: 2
    kernel_size: 5
    group: 2
    weight_filler {
      type: "gaussian"
      std: 0.01
    }
    bias_filler {
      type: "constant"
      value: 1
    }
  }
}
layer {
  name: "relu2"
  type: "ReLU"
  bottom: "conv2"
  top: "conv2"
}
layer {
  name: "pool2"
  type: "Pooling"
  bottom: "conv2"
  top: "pool2"
  pooling_param {
    pool: MAX
    kernel_size: 3
    stride: 2
  }
}
layer {
  name: "norm2"
  type: "LRN"
  bottom: "pool2"
  top: "norm2"
  lrn_param {
    local_size: 5
    alpha: 0.0001
    beta: 0.75
  }
}
layer {
  name: "conv3"
  type: "Convolution"
  bottom: "norm2"
  top: "conv3"
  param {
    lr_mult: 0
    decay_mult: 0
  }
  param {
    lr_mult: 0
    decay_mult: 0
  }
  convolution_param {
    num_output: 384
    pad: 1
    kernel_size: 3
    weight_filler {
      type: "gaussian"
      std: 0.01
    }
    bias_filler {
      type: "constant"
      value: 0
    }
  }
}
layer {
  name: "relu3"
  type: "ReLU"
  bottom: "conv3"
  top: "conv3"
}
layer {
  name: "conv4"
  type: "Convolution"
  bottom: "conv3"
  top: "conv4"
  param {
    lr_mult: 1
    decay_mult: 1
  }
  param {
    lr_mult: 2
    decay_mult: 0
  }
  convolution_param {
    num_output: 384
    pad: 1
    kernel_size: 3
    group: 2
    weight_filler {
      type: "gaussian"
      std: 0.01
    }
    bias_filler {
      type: "constant"
      value: 1
    }
  }
}
layer {
  name: "relu4"
  type: "ReLU"
  bottom: "conv4"
  top: "conv4"
}
layer {
  name: "conv5"
  type: "Convolution"
  bottom: "conv4"
  top: "conv5"
  param {
    lr_mult: 1
    decay_mult: 1
  }
  param {
    lr_mult: 2
    decay_mult: 0
  }
  convolution_param {
    num_output: 256
    pad: 1
    kernel_size: 3
    group: 2
    weight_filler {
      type: "gaussian"
      std: 0.01
    }
    bias_filler {
      type: "constant"
      value: 1
    }
  }
}
layer {
  name: "relu5"
  type: "ReLU"
  bottom: "conv5"
  top: "conv5"
}
layer {
  name: "pool5"
  type: "Pooling"
  bottom: "conv5"
  top: "pool5"
  pooling_param {
    pool: MAX
    kernel_size: 3
    stride: 2
  }
}
layer {
  name: "fc6"
  type: "InnerProduct"
  bottom: "pool5"
  top: "fc6"
  param {
    lr_mult: 1
    decay_mult: 1
  }
  param {
    lr_mult: 2
    decay_mult: 0
  }
  inner_product_param {
    num_output: 4096
    weight_filler {
      type: "gaussian"
      std: 0.005
    }
    bias_filler {
      type: "constant"
      value: 1
    }
  }
}
layer {
  name: "relu6"
  type: "ReLU"
  bottom: "fc6"
  top: "fc6"
}
layer {
  name: "drop6"
  type: "Dropout"
  bottom: "fc6"
  top: "fc6"
  dropout_param {
    dropout_ratio: 0.5
  }
}
layer {
  name: "fc7"
  type: "InnerProduct"
  bottom: "fc6"
  top: "fc7"
  param {
    lr_mult: 1
    decay_mult: 1
  }
  param {
    lr_mult: 2
    decay_mult: 0
  }
  inner_product_param {
    num_output: 4096
    weight_filler {
      type: "gaussian"
      std: 0.005
    }
    bias_filler {
      type: "constant"
      value: 1
    }
  }
}
layer {
  name: "relu7"
  type: "ReLU"
  bottom: "fc7"
  top: "fc7"
}
layer {
  name: "drop7"
  type: "Dropout"
  bottom: "fc7"
  top: "fc7"
  dropout_param {
    dropout_ratio: 0.5
  }
}
layer {
  name: "fc8_cook"
  type: "InnerProduct"
  bottom: "fc7"
  top: "fc8_cook"
  param {
    lr_mult: 10
    decay_mult: 1
  }
  param {
    lr_mult: 20
    decay_mult: 0
  }
  inner_product_param {
    num_output: 2
    weight_filler {
      type: "gaussian"
      std: 0.01
    }
    bias_filler {
      type: "constant"
      value: 0
    }
  }
}
layer {
  name: "accuracy"
  type: "Accuracy"
  bottom: "fc8_cook"
  bottom: "label"
  top: "accuracy"
  include {
    phase: TEST
  }
}
layer {
  name: "loss"
  type: "SoftmaxWithLoss"
  bottom: "fc8_cook"
  bottom: "label"
  top: "loss"
}
I0626 14:52:59.683888  4046 layer_factory.hpp:77] Creating layer data
I0626 14:52:59.683895  4046 net.cpp:100] Creating Layer data
I0626 14:52:59.683899  4046 net.cpp:408] data -> data
I0626 14:52:59.683904  4046 net.cpp:408] data -> label
I0626 14:52:59.683908  4046 data_transformer.cpp:25] Loading mean file from: /media/deepthought/DATA/Hongping/Codes/cook/model/imagenet_mean.binaryproto
I0626 14:52:59.685750  4046 image_data_layer.cpp:38] Opening file /media/deepthought/DATA/Hongping/Codes/cook/img/test_shuffle.txt
I0626 14:52:59.686162  4046 image_data_layer.cpp:58] A total of 134 images.
I0626 14:52:59.688302  4046 image_data_layer.cpp:85] output data size: 50,3,227,227
I0626 14:52:59.731508  4046 net.cpp:150] Setting up data
I0626 14:52:59.731524  4046 net.cpp:157] Top shape: 50 3 227 227 (7729350)
I0626 14:52:59.731528  4046 net.cpp:157] Top shape: 50 (50)
I0626 14:52:59.731528  4046 net.cpp:165] Memory required for data: 30917600
I0626 14:52:59.731534  4046 layer_factory.hpp:77] Creating layer label_data_1_split
I0626 14:52:59.731547  4046 net.cpp:100] Creating Layer label_data_1_split
I0626 14:52:59.731549  4046 net.cpp:434] label_data_1_split <- label
I0626 14:52:59.731554  4046 net.cpp:408] label_data_1_split -> label_data_1_split_0
I0626 14:52:59.731561  4046 net.cpp:408] label_data_1_split -> label_data_1_split_1
I0626 14:52:59.731657  4046 net.cpp:150] Setting up label_data_1_split
I0626 14:52:59.731664  4046 net.cpp:157] Top shape: 50 (50)
I0626 14:52:59.731667  4046 net.cpp:157] Top shape: 50 (50)
I0626 14:52:59.731667  4046 net.cpp:165] Memory required for data: 30918000
I0626 14:52:59.731668  4046 layer_factory.hpp:77] Creating layer conv1
I0626 14:52:59.731678  4046 net.cpp:100] Creating Layer conv1
I0626 14:52:59.731679  4046 net.cpp:434] conv1 <- data
I0626 14:52:59.731683  4046 net.cpp:408] conv1 -> conv1
I0626 14:52:59.732908  4046 net.cpp:150] Setting up conv1
I0626 14:52:59.732916  4046 net.cpp:157] Top shape: 50 96 55 55 (14520000)
I0626 14:52:59.732918  4046 net.cpp:165] Memory required for data: 88998000
I0626 14:52:59.732926  4046 layer_factory.hpp:77] Creating layer relu1
I0626 14:52:59.732931  4046 net.cpp:100] Creating Layer relu1
I0626 14:52:59.732935  4046 net.cpp:434] relu1 <- conv1
I0626 14:52:59.732939  4046 net.cpp:395] relu1 -> conv1 (in-place)
I0626 14:52:59.733041  4046 net.cpp:150] Setting up relu1
I0626 14:52:59.733044  4046 net.cpp:157] Top shape: 50 96 55 55 (14520000)
I0626 14:52:59.733048  4046 net.cpp:165] Memory required for data: 147078000
I0626 14:52:59.733050  4046 layer_factory.hpp:77] Creating layer pool1
I0626 14:52:59.733057  4046 net.cpp:100] Creating Layer pool1
I0626 14:52:59.733059  4046 net.cpp:434] pool1 <- conv1
I0626 14:52:59.733063  4046 net.cpp:408] pool1 -> pool1
I0626 14:52:59.733088  4046 net.cpp:150] Setting up pool1
I0626 14:52:59.733091  4046 net.cpp:157] Top shape: 50 96 27 27 (3499200)
I0626 14:52:59.733093  4046 net.cpp:165] Memory required for data: 161074800
I0626 14:52:59.733094  4046 layer_factory.hpp:77] Creating layer norm1
I0626 14:52:59.733099  4046 net.cpp:100] Creating Layer norm1
I0626 14:52:59.733101  4046 net.cpp:434] norm1 <- pool1
I0626 14:52:59.733103  4046 net.cpp:408] norm1 -> norm1
I0626 14:52:59.733642  4046 net.cpp:150] Setting up norm1
I0626 14:52:59.733649  4046 net.cpp:157] Top shape: 50 96 27 27 (3499200)
I0626 14:52:59.733649  4046 net.cpp:165] Memory required for data: 175071600
I0626 14:52:59.733651  4046 layer_factory.hpp:77] Creating layer conv2
I0626 14:52:59.733656  4046 net.cpp:100] Creating Layer conv2
I0626 14:52:59.733659  4046 net.cpp:434] conv2 <- norm1
I0626 14:52:59.733662  4046 net.cpp:408] conv2 -> conv2
I0626 14:52:59.740535  4046 net.cpp:150] Setting up conv2
I0626 14:52:59.740543  4046 net.cpp:157] Top shape: 50 256 27 27 (9331200)
I0626 14:52:59.740545  4046 net.cpp:165] Memory required for data: 212396400
I0626 14:52:59.740552  4046 layer_factory.hpp:77] Creating layer relu2
I0626 14:52:59.740557  4046 net.cpp:100] Creating Layer relu2
I0626 14:52:59.740561  4046 net.cpp:434] relu2 <- conv2
I0626 14:52:59.740562  4046 net.cpp:395] relu2 -> conv2 (in-place)
I0626 14:52:59.741092  4046 net.cpp:150] Setting up relu2
I0626 14:52:59.741098  4046 net.cpp:157] Top shape: 50 256 27 27 (9331200)
I0626 14:52:59.741099  4046 net.cpp:165] Memory required for data: 249721200
I0626 14:52:59.741101  4046 layer_factory.hpp:77] Creating layer pool2
I0626 14:52:59.741106  4046 net.cpp:100] Creating Layer pool2
I0626 14:52:59.741107  4046 net.cpp:434] pool2 <- conv2
I0626 14:52:59.741111  4046 net.cpp:408] pool2 -> pool2
I0626 14:52:59.741137  4046 net.cpp:150] Setting up pool2
I0626 14:52:59.741140  4046 net.cpp:157] Top shape: 50 256 13 13 (2163200)
I0626 14:52:59.741142  4046 net.cpp:165] Memory required for data: 258374000
I0626 14:52:59.741143  4046 layer_factory.hpp:77] Creating layer norm2
I0626 14:52:59.741147  4046 net.cpp:100] Creating Layer norm2
I0626 14:52:59.741147  4046 net.cpp:434] norm2 <- pool2
I0626 14:52:59.741150  4046 net.cpp:408] norm2 -> norm2
I0626 14:52:59.741261  4046 net.cpp:150] Setting up norm2
I0626 14:52:59.741266  4046 net.cpp:157] Top shape: 50 256 13 13 (2163200)
I0626 14:52:59.741267  4046 net.cpp:165] Memory required for data: 267026800
I0626 14:52:59.741268  4046 layer_factory.hpp:77] Creating layer conv3
I0626 14:52:59.741274  4046 net.cpp:100] Creating Layer conv3
I0626 14:52:59.741278  4046 net.cpp:434] conv3 <- norm2
I0626 14:52:59.741283  4046 net.cpp:408] conv3 -> conv3
I0626 14:52:59.749106  4046 net.cpp:150] Setting up conv3
I0626 14:52:59.749125  4046 net.cpp:157] Top shape: 50 384 13 13 (3244800)
I0626 14:52:59.749126  4046 net.cpp:165] Memory required for data: 280006000
I0626 14:52:59.749142  4046 layer_factory.hpp:77] Creating layer relu3
I0626 14:52:59.749155  4046 net.cpp:100] Creating Layer relu3
I0626 14:52:59.749157  4046 net.cpp:434] relu3 <- conv3
I0626 14:52:59.749162  4046 net.cpp:395] relu3 -> conv3 (in-place)
I0626 14:52:59.749274  4046 net.cpp:150] Setting up relu3
I0626 14:52:59.749279  4046 net.cpp:157] Top shape: 50 384 13 13 (3244800)
I0626 14:52:59.749280  4046 net.cpp:165] Memory required for data: 292985200
I0626 14:52:59.749281  4046 layer_factory.hpp:77] Creating layer conv4
I0626 14:52:59.749289  4046 net.cpp:100] Creating Layer conv4
I0626 14:52:59.749291  4046 net.cpp:434] conv4 <- conv3
I0626 14:52:59.749295  4046 net.cpp:408] conv4 -> conv4
I0626 14:52:59.756204  4046 net.cpp:150] Setting up conv4
I0626 14:52:59.756219  4046 net.cpp:157] Top shape: 50 384 13 13 (3244800)
I0626 14:52:59.756222  4046 net.cpp:165] Memory required for data: 305964400
I0626 14:52:59.756228  4046 layer_factory.hpp:77] Creating layer relu4
I0626 14:52:59.756235  4046 net.cpp:100] Creating Layer relu4
I0626 14:52:59.756238  4046 net.cpp:434] relu4 <- conv4
I0626 14:52:59.756242  4046 net.cpp:395] relu4 -> conv4 (in-place)
I0626 14:52:59.756357  4046 net.cpp:150] Setting up relu4
I0626 14:52:59.756361  4046 net.cpp:157] Top shape: 50 384 13 13 (3244800)
I0626 14:52:59.756363  4046 net.cpp:165] Memory required for data: 318943600
I0626 14:52:59.756364  4046 layer_factory.hpp:77] Creating layer conv5
I0626 14:52:59.756371  4046 net.cpp:100] Creating Layer conv5
I0626 14:52:59.756373  4046 net.cpp:434] conv5 <- conv4
I0626 14:52:59.756376  4046 net.cpp:408] conv5 -> conv5
I0626 14:52:59.762136  4046 net.cpp:150] Setting up conv5
I0626 14:52:59.762151  4046 net.cpp:157] Top shape: 50 256 13 13 (2163200)
I0626 14:52:59.762151  4046 net.cpp:165] Memory required for data: 327596400
I0626 14:52:59.762163  4046 layer_factory.hpp:77] Creating layer relu5
I0626 14:52:59.762171  4046 net.cpp:100] Creating Layer relu5
I0626 14:52:59.762173  4046 net.cpp:434] relu5 <- conv5
I0626 14:52:59.762177  4046 net.cpp:395] relu5 -> conv5 (in-place)
I0626 14:52:59.762290  4046 net.cpp:150] Setting up relu5
I0626 14:52:59.762295  4046 net.cpp:157] Top shape: 50 256 13 13 (2163200)
I0626 14:52:59.762295  4046 net.cpp:165] Memory required for data: 336249200
I0626 14:52:59.762297  4046 layer_factory.hpp:77] Creating layer pool5
I0626 14:52:59.762303  4046 net.cpp:100] Creating Layer pool5
I0626 14:52:59.762306  4046 net.cpp:434] pool5 <- conv5
I0626 14:52:59.762311  4046 net.cpp:408] pool5 -> pool5
I0626 14:52:59.762356  4046 net.cpp:150] Setting up pool5
I0626 14:52:59.762361  4046 net.cpp:157] Top shape: 50 256 6 6 (460800)
I0626 14:52:59.762363  4046 net.cpp:165] Memory required for data: 338092400
I0626 14:52:59.762367  4046 layer_factory.hpp:77] Creating layer fc6
I0626 14:52:59.762372  4046 net.cpp:100] Creating Layer fc6
I0626 14:52:59.762378  4046 net.cpp:434] fc6 <- pool5
I0626 14:52:59.762383  4046 net.cpp:408] fc6 -> fc6
I0626 14:53:00.029642  4046 net.cpp:150] Setting up fc6
I0626 14:53:00.029657  4046 net.cpp:157] Top shape: 50 4096 (204800)
I0626 14:53:00.029660  4046 net.cpp:165] Memory required for data: 338911600
I0626 14:53:00.029670  4046 layer_factory.hpp:77] Creating layer relu6
I0626 14:53:00.029677  4046 net.cpp:100] Creating Layer relu6
I0626 14:53:00.029681  4046 net.cpp:434] relu6 <- fc6
I0626 14:53:00.029690  4046 net.cpp:395] relu6 -> fc6 (in-place)
I0626 14:53:00.029855  4046 net.cpp:150] Setting up relu6
I0626 14:53:00.029860  4046 net.cpp:157] Top shape: 50 4096 (204800)
I0626 14:53:00.029862  4046 net.cpp:165] Memory required for data: 339730800
I0626 14:53:00.029865  4046 layer_factory.hpp:77] Creating layer drop6
I0626 14:53:00.029870  4046 net.cpp:100] Creating Layer drop6
I0626 14:53:00.029873  4046 net.cpp:434] drop6 <- fc6
I0626 14:53:00.029877  4046 net.cpp:395] drop6 -> fc6 (in-place)
I0626 14:53:00.029899  4046 net.cpp:150] Setting up drop6
I0626 14:53:00.029903  4046 net.cpp:157] Top shape: 50 4096 (204800)
I0626 14:53:00.029906  4046 net.cpp:165] Memory required for data: 340550000
I0626 14:53:00.029908  4046 layer_factory.hpp:77] Creating layer fc7
I0626 14:53:00.029914  4046 net.cpp:100] Creating Layer fc7
I0626 14:53:00.029917  4046 net.cpp:434] fc7 <- fc6
I0626 14:53:00.029922  4046 net.cpp:408] fc7 -> fc7
I0626 14:53:00.147145  4046 net.cpp:150] Setting up fc7
I0626 14:53:00.147161  4046 net.cpp:157] Top shape: 50 4096 (204800)
I0626 14:53:00.147163  4046 net.cpp:165] Memory required for data: 341369200
I0626 14:53:00.147174  4046 layer_factory.hpp:77] Creating layer relu7
I0626 14:53:00.147184  4046 net.cpp:100] Creating Layer relu7
I0626 14:53:00.147188  4046 net.cpp:434] relu7 <- fc7
I0626 14:53:00.147194  4046 net.cpp:395] relu7 -> fc7 (in-place)
I0626 14:53:00.147891  4046 net.cpp:150] Setting up relu7
I0626 14:53:00.147899  4046 net.cpp:157] Top shape: 50 4096 (204800)
I0626 14:53:00.147902  4046 net.cpp:165] Memory required for data: 342188400
I0626 14:53:00.147903  4046 layer_factory.hpp:77] Creating layer drop7
I0626 14:53:00.147909  4046 net.cpp:100] Creating Layer drop7
I0626 14:53:00.147912  4046 net.cpp:434] drop7 <- fc7
I0626 14:53:00.147914  4046 net.cpp:395] drop7 -> fc7 (in-place)
I0626 14:53:00.147938  4046 net.cpp:150] Setting up drop7
I0626 14:53:00.147941  4046 net.cpp:157] Top shape: 50 4096 (204800)
I0626 14:53:00.147943  4046 net.cpp:165] Memory required for data: 343007600
I0626 14:53:00.147945  4046 layer_factory.hpp:77] Creating layer fc8_cook
I0626 14:53:00.147953  4046 net.cpp:100] Creating Layer fc8_cook
I0626 14:53:00.147954  4046 net.cpp:434] fc8_cook <- fc7
I0626 14:53:00.147959  4046 net.cpp:408] fc8_cook -> fc8_cook
I0626 14:53:00.148083  4046 net.cpp:150] Setting up fc8_cook
I0626 14:53:00.148088  4046 net.cpp:157] Top shape: 50 2 (100)
I0626 14:53:00.148090  4046 net.cpp:165] Memory required for data: 343008000
I0626 14:53:00.148094  4046 layer_factory.hpp:77] Creating layer fc8_cook_fc8_cook_0_split
I0626 14:53:00.148099  4046 net.cpp:100] Creating Layer fc8_cook_fc8_cook_0_split
I0626 14:53:00.148102  4046 net.cpp:434] fc8_cook_fc8_cook_0_split <- fc8_cook
I0626 14:53:00.148106  4046 net.cpp:408] fc8_cook_fc8_cook_0_split -> fc8_cook_fc8_cook_0_split_0
I0626 14:53:00.148113  4046 net.cpp:408] fc8_cook_fc8_cook_0_split -> fc8_cook_fc8_cook_0_split_1
I0626 14:53:00.148136  4046 net.cpp:150] Setting up fc8_cook_fc8_cook_0_split
I0626 14:53:00.148141  4046 net.cpp:157] Top shape: 50 2 (100)
I0626 14:53:00.148145  4046 net.cpp:157] Top shape: 50 2 (100)
I0626 14:53:00.148147  4046 net.cpp:165] Memory required for data: 343008800
I0626 14:53:00.148149  4046 layer_factory.hpp:77] Creating layer accuracy
I0626 14:53:00.148154  4046 net.cpp:100] Creating Layer accuracy
I0626 14:53:00.148157  4046 net.cpp:434] accuracy <- fc8_cook_fc8_cook_0_split_0
I0626 14:53:00.148160  4046 net.cpp:434] accuracy <- label_data_1_split_0
I0626 14:53:00.148164  4046 net.cpp:408] accuracy -> accuracy
…
