…
I0625 10:50:25.182137 24179 net.cpp:58] Initializing net from parameters: 
name: "CaffeNetCook"
state {
  phase: TRAIN
  level: 0
  stage: ""
}
layer {
  name: "data"
  type: "ImageData"
  top: "data"
  top: "label"
  include {
    phase: TRAIN
  }
  transform_param {
    mirror: true
    crop_size: 227
    mean_file: "/media/deepthought/DATA/Hongping/Codes/cook/model/imagenet_mean.binaryproto"
  }
  image_data_param {
    source: "/media/deepthought/DATA/Hongping/Codes/cook/img/train_shuffle.txt"
    batch_size: 64
    shuffle: true
    new_height: 256
    new_width: 256
  }
}
layer {
  name: "conv1"
  type: "Convolution"
  bottom: "data"
  top: "conv1"
  param {
    lr_mult: 0
    decay_mult: 0
  }
  param {
    lr_mult: 0
    decay_mult: 0
  }
  convolution_param {
    num_output: 96
    kernel_size: 11
    stride: 4
    weight_filler {
      type: "gaussian"
      std: 0.01
    }
    bias_filler {
      type: "constant"
      value: 0
    }
  }
}
layer {
  name: "relu1"
  type: "ReLU"
  bottom: "conv1"
  top: "conv1"
}
layer {
  name: "pool1"
  type: "Pooling"
  bottom: "conv1"
  top: "pool1"
  pooling_param {
    pool: MAX
    kernel_size: 3
    stride: 2
  }
}
layer {
  name: "norm1"
  type: "LRN"
  bottom: "pool1"
  top: "norm1"
  lrn_param {
    local_size: 5
    alpha: 0.0001
    beta: 0.75
  }
}
layer {
  name: "conv2"
  type: "Convolution"
  bottom: "norm1"
  top: "conv2"
  param {
    lr_mult: 0
    decay_mult: 0
  }
  param {
    lr_mult: 0
    decay_mult: 0
  }
  convolution_param {
    num_output: 256
    pad: 2
    kernel_size: 5
    group: 2
    weight_filler {
      type: "gaussian"
      std: 0.01
    }
    bias_filler {
      type: "constant"
      value: 1
    }
  }
}
layer {
  name: "relu2"
  type: "ReLU"
  bottom: "conv2"
  top: "conv2"
}
layer {
  name: "pool2"
  type: "Pooling"
  bottom: "conv2"
  top: "pool2"
  pooling_param {
    pool: MAX
    kernel_size: 3
    stride: 2
  }
}
layer {
  name: "norm2"
  type: "LRN"
  bottom: "pool2"
  top: "norm2"
  lrn_param {
    local_size: 5
    alpha: 0.0001
    beta: 0.75
  }
}
layer {
  name: "conv3"
  type: "Convolution"
  bottom: "norm2"
  top: "conv3"
  param {
    lr_mult: 0
    decay_mult: 0
  }
  param {
    lr_mult: 0
    decay_mult: 0
  }
  convolution_param {
    num_output: 384
    pad: 1
    kernel_size: 3
    weight_filler {
      type: "gaussian"
      std: 0.01
    }
    bias_filler {
      type: "constant"
      value: 0
    }
  }
}
layer {
  name: "relu3"
  type: "ReLU"
  bottom: "conv3"
  top: "conv3"
}
layer {
  name: "conv4"
  type: "Convolution"
  bottom: "conv3"
  top: "conv4"
  param {
    lr_mult: 1
    decay_mult: 1
  }
  param {
    lr_mult: 2
    decay_mult: 0
  }
  convolution_param {
    num_output: 384
    pad: 1
    kernel_size: 3
    group: 2
    weight_filler {
      type: "gaussian"
      std: 0.01
    }
    bias_filler {
      type: "constant"
      value: 1
    }
  }
}
layer {
  name: "relu4"
  type: "ReLU"
  bottom: "conv4"
  top: "conv4"
}
layer {
  name: "conv5"
  type: "Convolution"
  bottom: "conv4"
  top: "conv5"
  param {
    lr_mult: 1
    decay_mult: 1
  }
  param {
    lr_mult: 2
    decay_mult: 0
  }
  convolution_param {
    num_output: 256
    pad: 1
    kernel_size: 3
    group: 2
    weight_filler {
      type: "gaussian"
      std: 0.01
    }
    bias_filler {
      type: "constant"
      value: 1
    }
  }
}
layer {
  name: "relu5"
  type: "ReLU"
  bottom: "conv5"
  top: "conv5"
}
layer {
  name: "pool5"
  type: "Pooling"
  bottom: "conv5"
  top: "pool5"
  pooling_param {
    pool: MAX
    kernel_size: 3
    stride: 2
  }
}
layer {
  name: "fc6"
  type: "InnerProduct"
  bottom: "pool5"
  top: "fc6"
  param {
    lr_mult: 1
    decay_mult: 1
  }
  param {
    lr_mult: 2
    decay_mult: 0
  }
  inner_product_param {
    num_output: 4096
    weight_filler {
      type: "gaussian"
      std: 0.005
    }
    bias_filler {
      type: "constant"
      value: 1
    }
  }
}
layer {
  name: "relu6"
  type: "ReLU"
  bottom: "fc6"
  top: "fc6"
}
layer {
  name: "drop6"
  type: "Dropout"
  bottom: "fc6"
  top: "fc6"
  dropout_param {
    dropout_ratio: 0.5
  }
}
layer {
  name: "fc7"
  type: "InnerProduct"
  bottom: "fc6"
  top: "fc7"
  param {
    lr_mult: 1
    decay_mult: 1
  }
  param {
    lr_mult: 2
    decay_mult: 0
  }
  inner_product_param {
    num_output: 4096
    weight_filler {
      type: "gaussian"
      std: 0.005
    }
    bias_filler {
      type: "constant"
      value: 1
    }
  }
}
layer {
  name: "relu7"
  type: "ReLU"
  bottom: "fc7"
  top: "fc7"
}
layer {
  name: "drop7"
  type: "Dropout"
  bottom: "fc7"
  top: "fc7"
  dropout_param {
    dropout_ratio: 0.5
  }
}
layer {
  name: "fc8_cook"
  type: "InnerProduct"
  bottom: "fc7"
  top: "fc8_cook"
  param {
    lr_mult: 10
    decay_mult: 1
  }
  param {
    lr_mult: 20
    decay_mult: 0
  }
  inner_product_param {
    num_output: 2
    weight_filler {
      type: "gaussian"
      std: 0.01
    }
    bias_filler {
      type: "constant"
      value: 0
    }
  }
}
layer {
  name: "loss"
  type: "SoftmaxWithLoss"
  bottom: "fc8_cook"
  bottom: "label"
  top: "loss"
}
I0625 10:50:25.182193 24179 layer_factory.hpp:77] Creating layer data
I0625 10:50:25.182209 24179 net.cpp:100] Creating Layer data
I0625 10:50:25.182214 24179 net.cpp:408] data -> data
I0625 10:50:25.182229 24179 net.cpp:408] data -> label
I0625 10:50:25.182240 24179 data_transformer.cpp:25] Loading mean file from: /media/deepthought/DATA/Hongping/Codes/cook/model/imagenet_mean.binaryproto
I0625 10:50:25.196892 24179 image_data_layer.cpp:38] Opening file /media/deepthought/DATA/Hongping/Codes/cook/img/train_shuffle.txt
I0625 10:50:25.197890 24179 image_data_layer.cpp:53] Shuffling data
I0625 10:50:25.197952 24179 image_data_layer.cpp:58] A total of 670 images.
I0625 10:50:25.301700 24179 image_data_layer.cpp:85] output data size: 64,3,227,227
I0625 10:50:25.349278 24179 net.cpp:150] Setting up data
I0625 10:50:25.349297 24179 net.cpp:157] Top shape: 64 3 227 227 (9893568)
I0625 10:50:25.349299 24179 net.cpp:157] Top shape: 64 (64)
I0625 10:50:25.349303 24179 net.cpp:165] Memory required for data: 39574528
I0625 10:50:25.349308 24179 layer_factory.hpp:77] Creating layer conv1
I0625 10:50:25.349325 24179 net.cpp:100] Creating Layer conv1
I0625 10:50:25.349329 24179 net.cpp:434] conv1 <- data
I0625 10:50:25.349337 24179 net.cpp:408] conv1 -> conv1
I0625 10:50:25.499387 24179 net.cpp:150] Setting up conv1
I0625 10:50:25.499404 24179 net.cpp:157] Top shape: 64 96 55 55 (18585600)
I0625 10:50:25.499406 24179 net.cpp:165] Memory required for data: 113916928
I0625 10:50:25.499423 24179 layer_factory.hpp:77] Creating layer relu1
I0625 10:50:25.499447 24179 net.cpp:100] Creating Layer relu1
I0625 10:50:25.499450 24179 net.cpp:434] relu1 <- conv1
I0625 10:50:25.499454 24179 net.cpp:395] relu1 -> conv1 (in-place)
I0625 10:50:25.499588 24179 net.cpp:150] Setting up relu1
I0625 10:50:25.499593 24179 net.cpp:157] Top shape: 64 96 55 55 (18585600)
I0625 10:50:25.499594 24179 net.cpp:165] Memory required for data: 188259328
I0625 10:50:25.499596 24179 layer_factory.hpp:77] Creating layer pool1
I0625 10:50:25.499600 24179 net.cpp:100] Creating Layer pool1
I0625 10:50:25.499601 24179 net.cpp:434] pool1 <- conv1
I0625 10:50:25.499603 24179 net.cpp:408] pool1 -> pool1
I0625 10:50:25.499632 24179 net.cpp:150] Setting up pool1
I0625 10:50:25.499635 24179 net.cpp:157] Top shape: 64 96 27 27 (4478976)
I0625 10:50:25.499637 24179 net.cpp:165] Memory required for data: 206175232
I0625 10:50:25.499639 24179 layer_factory.hpp:77] Creating layer norm1
I0625 10:50:25.499644 24179 net.cpp:100] Creating Layer norm1
I0625 10:50:25.499645 24179 net.cpp:434] norm1 <- pool1
I0625 10:50:25.499649 24179 net.cpp:408] norm1 -> norm1
I0625 10:50:25.500180 24179 net.cpp:150] Setting up norm1
I0625 10:50:25.500186 24179 net.cpp:157] Top shape: 64 96 27 27 (4478976)
I0625 10:50:25.500187 24179 net.cpp:165] Memory required for data: 224091136
I0625 10:50:25.500190 24179 layer_factory.hpp:77] Creating layer conv2
I0625 10:50:25.500195 24179 net.cpp:100] Creating Layer conv2
I0625 10:50:25.500197 24179 net.cpp:434] conv2 <- norm1
I0625 10:50:25.500200 24179 net.cpp:408] conv2 -> conv2
I0625 10:50:25.503723 24179 net.cpp:150] Setting up conv2
I0625 10:50:25.503731 24179 net.cpp:157] Top shape: 64 256 27 27 (11943936)
I0625 10:50:25.503733 24179 net.cpp:165] Memory required for data: 271866880
I0625 10:50:25.503739 24179 layer_factory.hpp:77] Creating layer relu2
I0625 10:50:25.503742 24179 net.cpp:100] Creating Layer relu2
I0625 10:50:25.503744 24179 net.cpp:434] relu2 <- conv2
I0625 10:50:25.503747 24179 net.cpp:395] relu2 -> conv2 (in-place)
I0625 10:50:25.504262 24179 net.cpp:150] Setting up relu2
I0625 10:50:25.504268 24179 net.cpp:157] Top shape: 64 256 27 27 (11943936)
I0625 10:50:25.504269 24179 net.cpp:165] Memory required for data: 319642624
I0625 10:50:25.504271 24179 layer_factory.hpp:77] Creating layer pool2
I0625 10:50:25.504274 24179 net.cpp:100] Creating Layer pool2
I0625 10:50:25.504276 24179 net.cpp:434] pool2 <- conv2
I0625 10:50:25.504278 24179 net.cpp:408] pool2 -> pool2
I0625 10:50:25.504303 24179 net.cpp:150] Setting up pool2
I0625 10:50:25.504307 24179 net.cpp:157] Top shape: 64 256 13 13 (2768896)
I0625 10:50:25.504307 24179 net.cpp:165] Memory required for data: 330718208
I0625 10:50:25.504308 24179 layer_factory.hpp:77] Creating layer norm2
I0625 10:50:25.504313 24179 net.cpp:100] Creating Layer norm2
I0625 10:50:25.504315 24179 net.cpp:434] norm2 <- pool2
I0625 10:50:25.504317 24179 net.cpp:408] norm2 -> norm2
I0625 10:50:25.504423 24179 net.cpp:150] Setting up norm2
I0625 10:50:25.504429 24179 net.cpp:157] Top shape: 64 256 13 13 (2768896)
I0625 10:50:25.504431 24179 net.cpp:165] Memory required for data: 341793792
I0625 10:50:25.504431 24179 layer_factory.hpp:77] Creating layer conv3
I0625 10:50:25.504436 24179 net.cpp:100] Creating Layer conv3
I0625 10:50:25.504438 24179 net.cpp:434] conv3 <- norm2
I0625 10:50:25.504441 24179 net.cpp:408] conv3 -> conv3
I0625 10:50:25.511967 24179 net.cpp:150] Setting up conv3
I0625 10:50:25.511979 24179 net.cpp:157] Top shape: 64 384 13 13 (4153344)
I0625 10:50:25.511981 24179 net.cpp:165] Memory required for data: 358407168
I0625 10:50:25.511989 24179 layer_factory.hpp:77] Creating layer relu3
I0625 10:50:25.511994 24179 net.cpp:100] Creating Layer relu3
I0625 10:50:25.511996 24179 net.cpp:434] relu3 <- conv3
I0625 10:50:25.511999 24179 net.cpp:395] relu3 -> conv3 (in-place)
I0625 10:50:25.512106 24179 net.cpp:150] Setting up relu3
I0625 10:50:25.512111 24179 net.cpp:157] Top shape: 64 384 13 13 (4153344)
I0625 10:50:25.512114 24179 net.cpp:165] Memory required for data: 375020544
I0625 10:50:25.512115 24179 layer_factory.hpp:77] Creating layer conv4
I0625 10:50:25.512121 24179 net.cpp:100] Creating Layer conv4
I0625 10:50:25.512123 24179 net.cpp:434] conv4 <- conv3
I0625 10:50:25.512125 24179 net.cpp:408] conv4 -> conv4
I0625 10:50:25.518790 24179 net.cpp:150] Setting up conv4
I0625 10:50:25.518801 24179 net.cpp:157] Top shape: 64 384 13 13 (4153344)
I0625 10:50:25.518802 24179 net.cpp:165] Memory required for data: 391633920
I0625 10:50:25.518808 24179 layer_factory.hpp:77] Creating layer relu4
I0625 10:50:25.518813 24179 net.cpp:100] Creating Layer relu4
I0625 10:50:25.518815 24179 net.cpp:434] relu4 <- conv4
I0625 10:50:25.518818 24179 net.cpp:395] relu4 -> conv4 (in-place)
I0625 10:50:25.518920 24179 net.cpp:150] Setting up relu4
I0625 10:50:25.518924 24179 net.cpp:157] Top shape: 64 384 13 13 (4153344)
I0625 10:50:25.518926 24179 net.cpp:165] Memory required for data: 408247296
I0625 10:50:25.518928 24179 layer_factory.hpp:77] Creating layer conv5
I0625 10:50:25.518934 24179 net.cpp:100] Creating Layer conv5
I0625 10:50:25.518934 24179 net.cpp:434] conv5 <- conv4
I0625 10:50:25.518937 24179 net.cpp:408] conv5 -> conv5
I0625 10:50:25.524097 24179 net.cpp:150] Setting up conv5
I0625 10:50:25.524106 24179 net.cpp:157] Top shape: 64 256 13 13 (2768896)
I0625 10:50:25.524108 24179 net.cpp:165] Memory required for data: 419322880
I0625 10:50:25.524114 24179 layer_factory.hpp:77] Creating layer relu5
I0625 10:50:25.524118 24179 net.cpp:100] Creating Layer relu5
I0625 10:50:25.524119 24179 net.cpp:434] relu5 <- conv5
I0625 10:50:25.524122 24179 net.cpp:395] relu5 -> conv5 (in-place)
I0625 10:50:25.524221 24179 net.cpp:150] Setting up relu5
I0625 10:50:25.524226 24179 net.cpp:157] Top shape: 64 256 13 13 (2768896)
I0625 10:50:25.524227 24179 net.cpp:165] Memory required for data: 430398464
I0625 10:50:25.524229 24179 layer_factory.hpp:77] Creating layer pool5
I0625 10:50:25.524232 24179 net.cpp:100] Creating Layer pool5
I0625 10:50:25.524233 24179 net.cpp:434] pool5 <- conv5
I0625 10:50:25.524236 24179 net.cpp:408] pool5 -> pool5
I0625 10:50:25.524262 24179 net.cpp:150] Setting up pool5
I0625 10:50:25.524266 24179 net.cpp:157] Top shape: 64 256 6 6 (589824)
I0625 10:50:25.524266 24179 net.cpp:165] Memory required for data: 432757760
I0625 10:50:25.524267 24179 layer_factory.hpp:77] Creating layer fc6
I0625 10:50:25.524274 24179 net.cpp:100] Creating Layer fc6
I0625 10:50:25.524276 24179 net.cpp:434] fc6 <- pool5
I0625 10:50:25.524278 24179 net.cpp:408] fc6 -> fc6
I0625 10:50:25.785549 24179 net.cpp:150] Setting up fc6
I0625 10:50:25.785564 24179 net.cpp:157] Top shape: 64 4096 (262144)
I0625 10:50:25.785567 24179 net.cpp:165] Memory required for data: 433806336
I0625 10:50:25.785573 24179 layer_factory.hpp:77] Creating layer relu6
I0625 10:50:25.785578 24179 net.cpp:100] Creating Layer relu6
I0625 10:50:25.785580 24179 net.cpp:434] relu6 <- fc6
I0625 10:50:25.785583 24179 net.cpp:395] relu6 -> fc6 (in-place)
I0625 10:50:25.786252 24179 net.cpp:150] Setting up relu6
I0625 10:50:25.786259 24179 net.cpp:157] Top shape: 64 4096 (262144)
I0625 10:50:25.786262 24179 net.cpp:165] Memory required for data: 434854912
I0625 10:50:25.786263 24179 layer_factory.hpp:77] Creating layer drop6
I0625 10:50:25.786267 24179 net.cpp:100] Creating Layer drop6
I0625 10:50:25.786268 24179 net.cpp:434] drop6 <- fc6
I0625 10:50:25.786272 24179 net.cpp:395] drop6 -> fc6 (in-place)
I0625 10:50:25.786293 24179 net.cpp:150] Setting up drop6
I0625 10:50:25.786295 24179 net.cpp:157] Top shape: 64 4096 (262144)
I0625 10:50:25.786298 24179 net.cpp:165] Memory required for data: 435903488
I0625 10:50:25.786298 24179 layer_factory.hpp:77] Creating layer fc7
I0625 10:50:25.786303 24179 net.cpp:100] Creating Layer fc7
I0625 10:50:25.786304 24179 net.cpp:434] fc7 <- fc6
I0625 10:50:25.786306 24179 net.cpp:408] fc7 -> fc7
I0625 10:50:25.920174 24179 net.cpp:150] Setting up fc7
I0625 10:50:25.920191 24179 net.cpp:157] Top shape: 64 4096 (262144)
I0625 10:50:25.920192 24179 net.cpp:165] Memory required for data: 436952064
I0625 10:50:25.920199 24179 layer_factory.hpp:77] Creating layer relu7
I0625 10:50:25.920207 24179 net.cpp:100] Creating Layer relu7
I0625 10:50:25.920208 24179 net.cpp:434] relu7 <- fc7
I0625 10:50:25.920213 24179 net.cpp:395] relu7 -> fc7 (in-place)
I0625 10:50:25.920377 24179 net.cpp:150] Setting up relu7
I0625 10:50:25.920382 24179 net.cpp:157] Top shape: 64 4096 (262144)
I0625 10:50:25.920383 24179 net.cpp:165] Memory required for data: 438000640
I0625 10:50:25.920384 24179 layer_factory.hpp:77] Creating layer drop7
I0625 10:50:25.920388 24179 net.cpp:100] Creating Layer drop7
I0625 10:50:25.920390 24179 net.cpp:434] drop7 <- fc7
I0625 10:50:25.920393 24179 net.cpp:395] drop7 -> fc7 (in-place)
I0625 10:50:25.920409 24179 net.cpp:150] Setting up drop7
I0625 10:50:25.920413 24179 net.cpp:157] Top shape: 64 4096 (262144)
I0625 10:50:25.920414 24179 net.cpp:165] Memory required for data: 439049216
I0625 10:50:25.920416 24179 layer_factory.hpp:77] Creating layer fc8_cook
I0625 10:50:25.920421 24179 net.cpp:100] Creating Layer fc8_cook
I0625 10:50:25.920423 24179 net.cpp:434] fc8_cook <- fc7
I0625 10:50:25.920426 24179 net.cpp:408] fc8_cook -> fc8_cook
I0625 10:50:25.921237 24179 net.cpp:150] Setting up fc8_cook
I0625 10:50:25.921244 24179 net.cpp:157] Top shape: 64 2 (128)
I0625 10:50:25.921245 24179 net.cpp:165] Memory required for data: 439049728
I0625 10:50:25.921250 24179 layer_factory.hpp:77] Creating layer loss
I0625 10:50:25.921254 24179 net.cpp:100] Creating Layer loss
I0625 10:50:25.921257 24179 net.cpp:434] loss <- fc8_cook
I0625 10:50:25.921258 24179 net.cpp:434] loss <- label
I0625 10:50:25.921263 24179 net.cpp:408] loss -> loss
I0625 10:50:25.921272 24179 layer_factory.hpp:77] Creating layer loss
…
I0625 10:50:25.922284 24179 net.cpp:322] The NetState phase (1) differed from the phase (0) specified by a rule in layer data
I0625 10:50:25.922407 24179 net.cpp:58] Initializing net from parameters: 
name: "CaffeNetCook"
state {
  phase: TEST
}
layer {
  name: "data"
  type: "ImageData"
  top: "data"
  top: "label"
  include {
    phase: TEST
  }
  transform_param {
    mirror: false
    crop_size: 227
    mean_file: "/media/deepthought/DATA/Hongping/Codes/cook/model/imagenet_mean.binaryproto"
  }
  image_data_param {
    source: "/media/deepthought/DATA/Hongping/Codes/cook/img/test_shuffle.txt"
    batch_size: 50
    new_height: 256
    new_width: 256
  }
}
layer {
  name: "conv1"
  type: "Convolution"
  bottom: "data"
  top: "conv1"
  param {
    lr_mult: 0
    decay_mult: 0
  }
  param {
    lr_mult: 0
    decay_mult: 0
  }
  convolution_param {
    num_output: 96
    kernel_size: 11
    stride: 4
    weight_filler {
      type: "gaussian"
      std: 0.01
    }
    bias_filler {
      type: "constant"
      value: 0
    }
  }
}
layer {
  name: "relu1"
  type: "ReLU"
  bottom: "conv1"
  top: "conv1"
}
layer {
  name: "pool1"
  type: "Pooling"
  bottom: "conv1"
  top: "pool1"
  pooling_param {
    pool: MAX
    kernel_size: 3
    stride: 2
  }
}
layer {
  name: "norm1"
  type: "LRN"
  bottom: "pool1"
  top: "norm1"
  lrn_param {
    local_size: 5
    alpha: 0.0001
    beta: 0.75
  }
}
layer {
  name: "conv2"
  type: "Convolution"
  bottom: "norm1"
  top: "conv2"
  param {
    lr_mult: 0
    decay_mult: 0
  }
  param {
    lr_mult: 0
    decay_mult: 0
  }
  convolution_param {
    num_output: 256
    pad: 2
    kernel_size: 5
    group: 2
    weight_filler {
      type: "gaussian"
      std: 0.01
    }
    bias_filler {
      type: "constant"
      value: 1
    }
  }
}
layer {
  name: "relu2"
  type: "ReLU"
  bottom: "conv2"
  top: "conv2"
}
layer {
  name: "pool2"
  type: "Pooling"
  bottom: "conv2"
  top: "pool2"
  pooling_param {
    pool: MAX
    kernel_size: 3
    stride: 2
  }
}
layer {
  name: "norm2"
  type: "LRN"
  bottom: "pool2"
  top: "norm2"
  lrn_param {
    local_size: 5
    alpha: 0.0001
    beta: 0.75
  }
}
layer {
  name: "conv3"
  type: "Convolution"
  bottom: "norm2"
  top: "conv3"
  param {
    lr_mult: 0
    decay_mult: 0
  }
  param {
    lr_mult: 0
    decay_mult: 0
  }
  convolution_param {
    num_output: 384
    pad: 1
    kernel_size: 3
    weight_filler {
      type: "gaussian"
      std: 0.01
    }
    bias_filler {
      type: "constant"
      value: 0
    }
  }
}
layer {
  name: "relu3"
  type: "ReLU"
  bottom: "conv3"
  top: "conv3"
}
layer {
  name: "conv4"
  type: "Convolution"
  bottom: "conv3"
  top: "conv4"
  param {
    lr_mult: 1
    decay_mult: 1
  }
  param {
    lr_mult: 2
    decay_mult: 0
  }
  convolution_param {
    num_output: 384
    pad: 1
    kernel_size: 3
    group: 2
    weight_filler {
      type: "gaussian"
      std: 0.01
    }
    bias_filler {
      type: "constant"
      value: 1
    }
  }
}
layer {
  name: "relu4"
  type: "ReLU"
  bottom: "conv4"
  top: "conv4"
}
layer {
  name: "conv5"
  type: "Convolution"
  bottom: "conv4"
  top: "conv5"
  param {
    lr_mult: 1
    decay_mult: 1
  }
  param {
    lr_mult: 2
    decay_mult: 0
  }
  convolution_param {
    num_output: 256
    pad: 1
    kernel_size: 3
    group: 2
    weight_filler {
      type: "gaussian"
      std: 0.01
    }
    bias_filler {
      type: "constant"
      value: 1
    }
  }
}
layer {
  name: "relu5"
  type: "ReLU"
  bottom: "conv5"
  top: "conv5"
}
layer {
  name: "pool5"
  type: "Pooling"
  bottom: "conv5"
  top: "pool5"
  pooling_param {
    pool: MAX
    kernel_size: 3
    stride: 2
  }
}
layer {
  name: "fc6"
  type: "InnerProduct"
  bottom: "pool5"
  top: "fc6"
  param {
    lr_mult: 1
    decay_mult: 1
  }
  param {
    lr_mult: 2
    decay_mult: 0
  }
  inner_product_param {
    num_output: 4096
    weight_filler {
      type: "gaussian"
      std: 0.005
    }
    bias_filler {
      type: "constant"
      value: 1
    }
  }
}
layer {
  name: "relu6"
  type: "ReLU"
  bottom: "fc6"
  top: "fc6"
}
layer {
  name: "drop6"
  type: "Dropout"
  bottom: "fc6"
  top: "fc6"
  dropout_param {
    dropout_ratio: 0.5
  }
}
layer {
  name: "fc7"
  type: "InnerProduct"
  bottom: "fc6"
  top: "fc7"
  param {
    lr_mult: 1
    decay_mult: 1
  }
  param {
    lr_mult: 2
    decay_mult: 0
  }
  inner_product_param {
    num_output: 4096
    weight_filler {
      type: "gaussian"
      std: 0.005
    }
    bias_filler {
      type: "constant"
      value: 1
    }
  }
}
layer {
  name: "relu7"
  type: "ReLU"
  bottom: "fc7"
  top: "fc7"
}
layer {
  name: "drop7"
  type: "Dropout"
  bottom: "fc7"
  top: "fc7"
  dropout_param {
    dropout_ratio: 0.5
  }
}
layer {
  name: "fc8_cook"
  type: "InnerProduct"
  bottom: "fc7"
  top: "fc8_cook"
  param {
    lr_mult: 10
    decay_mult: 1
  }
  param {
    lr_mult: 20
    decay_mult: 0
  }
  inner_product_param {
    num_output: 2
    weight_filler {
      type: "gaussian"
      std: 0.01
    }
    bias_filler {
      type: "constant"
      value: 0
    }
  }
}
layer {
  name: "accuracy"
  type: "Accuracy"
  bottom: "fc8_cook"
  bottom: "label"
  top: "accuracy"
  include {
    phase: TEST
  }
}
layer {
  name: "loss"
  type: "SoftmaxWithLoss"
  bottom: "fc8_cook"
  bottom: "label"
  top: "loss"
}
I0625 10:50:25.922471 24179 layer_factory.hpp:77] Creating layer data
I0625 10:50:25.922478 24179 net.cpp:100] Creating Layer data
I0625 10:50:25.922482 24179 net.cpp:408] data -> data
I0625 10:50:25.922487 24179 net.cpp:408] data -> label
I0625 10:50:25.922492 24179 data_transformer.cpp:25] Loading mean file from: /media/deepthought/DATA/Hongping/Codes/cook/model/imagenet_mean.binaryproto
I0625 10:50:25.924216 24179 image_data_layer.cpp:38] Opening file /media/deepthought/DATA/Hongping/Codes/cook/img/test_shuffle.txt
I0625 10:50:25.924785 24179 image_data_layer.cpp:58] A total of 134 images.
I0625 10:50:25.927369 24179 image_data_layer.cpp:85] output data size: 50,3,227,227
I0625 10:50:25.967496 24179 net.cpp:150] Setting up data
I0625 10:50:25.967512 24179 net.cpp:157] Top shape: 50 3 227 227 (7729350)
I0625 10:50:25.967515 24179 net.cpp:157] Top shape: 50 (50)
I0625 10:50:25.967517 24179 net.cpp:165] Memory required for data: 30917600
I0625 10:50:25.967521 24179 layer_factory.hpp:77] Creating layer label_data_1_split
I0625 10:50:25.967531 24179 net.cpp:100] Creating Layer label_data_1_split
I0625 10:50:25.967535 24179 net.cpp:434] label_data_1_split <- label
I0625 10:50:25.967540 24179 net.cpp:408] label_data_1_split -> label_data_1_split_0
I0625 10:50:25.967545 24179 net.cpp:408] label_data_1_split -> label_data_1_split_1
I0625 10:50:25.967629 24179 net.cpp:150] Setting up label_data_1_split
I0625 10:50:25.967634 24179 net.cpp:157] Top shape: 50 (50)
I0625 10:50:25.967636 24179 net.cpp:157] Top shape: 50 (50)
I0625 10:50:25.967638 24179 net.cpp:165] Memory required for data: 30918000
I0625 10:50:25.967639 24179 layer_factory.hpp:77] Creating layer conv1
I0625 10:50:25.967648 24179 net.cpp:100] Creating Layer conv1
I0625 10:50:25.967650 24179 net.cpp:434] conv1 <- data
I0625 10:50:25.967653 24179 net.cpp:408] conv1 -> conv1
I0625 10:50:25.969017 24179 net.cpp:150] Setting up conv1
I0625 10:50:25.969023 24179 net.cpp:157] Top shape: 50 96 55 55 (14520000)
I0625 10:50:25.969025 24179 net.cpp:165] Memory required for data: 88998000
I0625 10:50:25.969033 24179 layer_factory.hpp:77] Creating layer relu1
I0625 10:50:25.969036 24179 net.cpp:100] Creating Layer relu1
I0625 10:50:25.969038 24179 net.cpp:434] relu1 <- conv1
I0625 10:50:25.969041 24179 net.cpp:395] relu1 -> conv1 (in-place)
I0625 10:50:25.969146 24179 net.cpp:150] Setting up relu1
I0625 10:50:25.969151 24179 net.cpp:157] Top shape: 50 96 55 55 (14520000)
I0625 10:50:25.969152 24179 net.cpp:165] Memory required for data: 147078000
I0625 10:50:25.969153 24179 layer_factory.hpp:77] Creating layer pool1
I0625 10:50:25.969158 24179 net.cpp:100] Creating Layer pool1
I0625 10:50:25.969161 24179 net.cpp:434] pool1 <- conv1
I0625 10:50:25.969163 24179 net.cpp:408] pool1 -> pool1
I0625 10:50:25.969187 24179 net.cpp:150] Setting up pool1
I0625 10:50:25.969192 24179 net.cpp:157] Top shape: 50 96 27 27 (3499200)
I0625 10:50:25.969193 24179 net.cpp:165] Memory required for data: 161074800
I0625 10:50:25.969195 24179 layer_factory.hpp:77] Creating layer norm1
I0625 10:50:25.969199 24179 net.cpp:100] Creating Layer norm1
I0625 10:50:25.969202 24179 net.cpp:434] norm1 <- pool1
I0625 10:50:25.969203 24179 net.cpp:408] norm1 -> norm1
I0625 10:50:25.969789 24179 net.cpp:150] Setting up norm1
I0625 10:50:25.969796 24179 net.cpp:157] Top shape: 50 96 27 27 (3499200)
I0625 10:50:25.969797 24179 net.cpp:165] Memory required for data: 175071600
I0625 10:50:25.969799 24179 layer_factory.hpp:77] Creating layer conv2
I0625 10:50:25.969805 24179 net.cpp:100] Creating Layer conv2
I0625 10:50:25.969806 24179 net.cpp:434] conv2 <- norm1
I0625 10:50:25.969810 24179 net.cpp:408] conv2 -> conv2
I0625 10:50:25.978353 24179 net.cpp:150] Setting up conv2
I0625 10:50:25.978363 24179 net.cpp:157] Top shape: 50 256 27 27 (9331200)
I0625 10:50:25.978364 24179 net.cpp:165] Memory required for data: 212396400
I0625 10:50:25.978371 24179 layer_factory.hpp:77] Creating layer relu2
I0625 10:50:25.978375 24179 net.cpp:100] Creating Layer relu2
I0625 10:50:25.978377 24179 net.cpp:434] relu2 <- conv2
I0625 10:50:25.978380 24179 net.cpp:395] relu2 -> conv2 (in-place)
I0625 10:50:25.978952 24179 net.cpp:150] Setting up relu2
I0625 10:50:25.978958 24179 net.cpp:157] Top shape: 50 256 27 27 (9331200)
I0625 10:50:25.978960 24179 net.cpp:165] Memory required for data: 249721200
I0625 10:50:25.978962 24179 layer_factory.hpp:77] Creating layer pool2
I0625 10:50:25.978967 24179 net.cpp:100] Creating Layer pool2
I0625 10:50:25.978970 24179 net.cpp:434] pool2 <- conv2
I0625 10:50:25.978972 24179 net.cpp:408] pool2 -> pool2
I0625 10:50:25.979001 24179 net.cpp:150] Setting up pool2
I0625 10:50:25.979003 24179 net.cpp:157] Top shape: 50 256 13 13 (2163200)
I0625 10:50:25.979005 24179 net.cpp:165] Memory required for data: 258374000
I0625 10:50:25.979007 24179 layer_factory.hpp:77] Creating layer norm2
I0625 10:50:25.979012 24179 net.cpp:100] Creating Layer norm2
I0625 10:50:25.979012 24179 net.cpp:434] norm2 <- pool2
I0625 10:50:25.979015 24179 net.cpp:408] norm2 -> norm2
I0625 10:50:25.979135 24179 net.cpp:150] Setting up norm2
I0625 10:50:25.979140 24179 net.cpp:157] Top shape: 50 256 13 13 (2163200)
I0625 10:50:25.979142 24179 net.cpp:165] Memory required for data: 267026800
I0625 10:50:25.979143 24179 layer_factory.hpp:77] Creating layer conv3
I0625 10:50:25.979149 24179 net.cpp:100] Creating Layer conv3
I0625 10:50:25.979152 24179 net.cpp:434] conv3 <- norm2
I0625 10:50:25.979156 24179 net.cpp:408] conv3 -> conv3
I0625 10:50:25.988919 24179 net.cpp:150] Setting up conv3
I0625 10:50:25.988934 24179 net.cpp:157] Top shape: 50 384 13 13 (3244800)
I0625 10:50:25.988936 24179 net.cpp:165] Memory required for data: 280006000
I0625 10:50:25.988947 24179 layer_factory.hpp:77] Creating layer relu3
I0625 10:50:25.988955 24179 net.cpp:100] Creating Layer relu3
I0625 10:50:25.988957 24179 net.cpp:434] relu3 <- conv3
I0625 10:50:25.988962 24179 net.cpp:395] relu3 -> conv3 (in-place)
I0625 10:50:25.989078 24179 net.cpp:150] Setting up relu3
I0625 10:50:25.989081 24179 net.cpp:157] Top shape: 50 384 13 13 (3244800)
I0625 10:50:25.989084 24179 net.cpp:165] Memory required for data: 292985200
I0625 10:50:25.989085 24179 layer_factory.hpp:77] Creating layer conv4
I0625 10:50:25.989091 24179 net.cpp:100] Creating Layer conv4
I0625 10:50:25.989094 24179 net.cpp:434] conv4 <- conv3
I0625 10:50:25.989097 24179 net.cpp:408] conv4 -> conv4
I0625 10:50:25.997560 24179 net.cpp:150] Setting up conv4
I0625 10:50:25.997573 24179 net.cpp:157] Top shape: 50 384 13 13 (3244800)
I0625 10:50:25.997575 24179 net.cpp:165] Memory required for data: 305964400
I0625 10:50:25.997581 24179 layer_factory.hpp:77] Creating layer relu4
I0625 10:50:25.997586 24179 net.cpp:100] Creating Layer relu4
I0625 10:50:25.997589 24179 net.cpp:434] relu4 <- conv4
I0625 10:50:25.997594 24179 net.cpp:395] relu4 -> conv4 (in-place)
I0625 10:50:25.997714 24179 net.cpp:150] Setting up relu4
I0625 10:50:25.997720 24179 net.cpp:157] Top shape: 50 384 13 13 (3244800)
I0625 10:50:25.997721 24179 net.cpp:165] Memory required for data: 318943600
I0625 10:50:25.997722 24179 layer_factory.hpp:77] Creating layer conv5
I0625 10:50:25.997730 24179 net.cpp:100] Creating Layer conv5
I0625 10:50:25.997731 24179 net.cpp:434] conv5 <- conv4
I0625 10:50:25.997735 24179 net.cpp:408] conv5 -> conv5
I0625 10:50:26.007753 24179 net.cpp:150] Setting up conv5
I0625 10:50:26.007766 24179 net.cpp:157] Top shape: 50 256 13 13 (2163200)
I0625 10:50:26.007767 24179 net.cpp:165] Memory required for data: 327596400
I0625 10:50:26.007776 24179 layer_factory.hpp:77] Creating layer relu5
I0625 10:50:26.007781 24179 net.cpp:100] Creating Layer relu5
I0625 10:50:26.007783 24179 net.cpp:434] relu5 <- conv5
I0625 10:50:26.007786 24179 net.cpp:395] relu5 -> conv5 (in-place)
I0625 10:50:26.007899 24179 net.cpp:150] Setting up relu5
I0625 10:50:26.007905 24179 net.cpp:157] Top shape: 50 256 13 13 (2163200)
I0625 10:50:26.007906 24179 net.cpp:165] Memory required for data: 336249200
I0625 10:50:26.007908 24179 layer_factory.hpp:77] Creating layer pool5
I0625 10:50:26.007915 24179 net.cpp:100] Creating Layer pool5
I0625 10:50:26.007916 24179 net.cpp:434] pool5 <- conv5
I0625 10:50:26.007920 24179 net.cpp:408] pool5 -> pool5
I0625 10:50:26.007951 24179 net.cpp:150] Setting up pool5
I0625 10:50:26.007956 24179 net.cpp:157] Top shape: 50 256 6 6 (460800)
I0625 10:50:26.007957 24179 net.cpp:165] Memory required for data: 338092400
I0625 10:50:26.007958 24179 layer_factory.hpp:77] Creating layer fc6
I0625 10:50:26.007963 24179 net.cpp:100] Creating Layer fc6
I0625 10:50:26.007966 24179 net.cpp:434] fc6 <- pool5
I0625 10:50:26.007968 24179 net.cpp:408] fc6 -> fc6
I0625 10:50:26.358595 24179 net.cpp:150] Setting up fc6
I0625 10:50:26.358613 24179 net.cpp:157] Top shape: 50 4096 (204800)
I0625 10:50:26.358615 24179 net.cpp:165] Memory required for data: 338911600
I0625 10:50:26.358628 24179 layer_factory.hpp:77] Creating layer relu6
I0625 10:50:26.358638 24179 net.cpp:100] Creating Layer relu6
I0625 10:50:26.358641 24179 net.cpp:434] relu6 <- fc6
I0625 10:50:26.358649 24179 net.cpp:395] relu6 -> fc6 (in-place)
I0625 10:50:26.358824 24179 net.cpp:150] Setting up relu6
I0625 10:50:26.358829 24179 net.cpp:157] Top shape: 50 4096 (204800)
I0625 10:50:26.358830 24179 net.cpp:165] Memory required for data: 339730800
I0625 10:50:26.358831 24179 layer_factory.hpp:77] Creating layer drop6
I0625 10:50:26.358835 24179 net.cpp:100] Creating Layer drop6
I0625 10:50:26.358837 24179 net.cpp:434] drop6 <- fc6
I0625 10:50:26.358840 24179 net.cpp:395] drop6 -> fc6 (in-place)
I0625 10:50:26.358860 24179 net.cpp:150] Setting up drop6
I0625 10:50:26.358863 24179 net.cpp:157] Top shape: 50 4096 (204800)
I0625 10:50:26.358865 24179 net.cpp:165] Memory required for data: 340550000
I0625 10:50:26.358866 24179 layer_factory.hpp:77] Creating layer fc7
I0625 10:50:26.358871 24179 net.cpp:100] Creating Layer fc7
I0625 10:50:26.358875 24179 net.cpp:434] fc7 <- fc6
I0625 10:50:26.358877 24179 net.cpp:408] fc7 -> fc7
I0625 10:50:26.493924 24179 net.cpp:150] Setting up fc7
I0625 10:50:26.493940 24179 net.cpp:157] Top shape: 50 4096 (204800)
I0625 10:50:26.493942 24179 net.cpp:165] Memory required for data: 341369200
I0625 10:50:26.493948 24179 layer_factory.hpp:77] Creating layer relu7
I0625 10:50:26.493953 24179 net.cpp:100] Creating Layer relu7
I0625 10:50:26.493955 24179 net.cpp:434] relu7 <- fc7
I0625 10:50:26.493959 24179 net.cpp:395] relu7 -> fc7 (in-place)
I0625 10:50:26.494644 24179 net.cpp:150] Setting up relu7
I0625 10:50:26.494650 24179 net.cpp:157] Top shape: 50 4096 (204800)
I0625 10:50:26.494652 24179 net.cpp:165] Memory required for data: 342188400
I0625 10:50:26.494654 24179 layer_factory.hpp:77] Creating layer drop7
I0625 10:50:26.494657 24179 net.cpp:100] Creating Layer drop7
I0625 10:50:26.494659 24179 net.cpp:434] drop7 <- fc7
I0625 10:50:26.494662 24179 net.cpp:395] drop7 -> fc7 (in-place)
I0625 10:50:26.494684 24179 net.cpp:150] Setting up drop7
I0625 10:50:26.494688 24179 net.cpp:157] Top shape: 50 4096 (204800)
I0625 10:50:26.494690 24179 net.cpp:165] Memory required for data: 343007600
I0625 10:50:26.494693 24179 layer_factory.hpp:77] Creating layer fc8_cook
I0625 10:50:26.494700 24179 net.cpp:100] Creating Layer fc8_cook
I0625 10:50:26.494704 24179 net.cpp:434] fc8_cook <- fc7
I0625 10:50:26.494709 24179 net.cpp:408] fc8_cook -> fc8_cook
I0625 10:50:26.494885 24179 net.cpp:150] Setting up fc8_cook
I0625 10:50:26.494891 24179 net.cpp:157] Top shape: 50 2 (100)
I0625 10:50:26.494894 24179 net.cpp:165] Memory required for data: 343008000
I0625 10:50:26.494899 24179 layer_factory.hpp:77] Creating layer fc8_cook_fc8_cook_0_split
I0625 10:50:26.494904 24179 net.cpp:100] Creating Layer fc8_cook_fc8_cook_0_split
I0625 10:50:26.494911 24179 net.cpp:434] fc8_cook_fc8_cook_0_split <- fc8_cook
I0625 10:50:26.494918 24179 net.cpp:408] fc8_cook_fc8_cook_0_split -> fc8_cook_fc8_cook_0_split_0
I0625 10:50:26.494925 24179 net.cpp:408] fc8_cook_fc8_cook_0_split -> fc8_cook_fc8_cook_0_split_1
I0625 10:50:26.494951 24179 net.cpp:150] Setting up fc8_cook_fc8_cook_0_split
I0625 10:50:26.494954 24179 net.cpp:157] Top shape: 50 2 (100)
I0625 10:50:26.494956 24179 net.cpp:157] Top shape: 50 2 (100)
I0625 10:50:26.494957 24179 net.cpp:165] Memory required for data: 343008800
I0625 10:50:26.494958 24179 layer_factory.hpp:77] Creating layer accuracy
I0625 10:50:26.494963 24179 net.cpp:100] Creating Layer accuracy
I0625 10:50:26.494966 24179 net.cpp:434] accuracy <- fc8_cook_fc8_cook_0_split_0
I0625 10:50:26.494968 24179 net.cpp:434] accuracy <- label_data_1_split_0
I0625 10:50:26.494971 24179 net.cpp:408] accuracy -> accuracy
…
